# Parameters
nc: 80 # number of classes
ch: 5
scales: # model compound scaling constants
  # [depth, width, max_channels]
  n: [0.50, 0.25, 1024]
  s: [0.50, 0.50, 1024]
  m: [0.50, 1.00, 512]
  l: [1.00, 1.00, 512]
  x: [1.00, 1.50, 512]

# YOLO Fuse backbone
backbone:
  # [from, repeats, module, args]
  - [-1, 1, Plugin_module, []]
  - [-1, 1, ModalitySelector, [1,2]] # 1 RGB
  - [-2, 1, ModalitySelector, [2,2]] # 2 IR

  - [1, 1, Conv, [64, 3, 2]] # 3-P1/2
  - [-1, 1, Conv, [128, 3, 2, 1, 2]] # 4-P2/4
  - [-1, 2, C3k2, [256, False, 0.25]]
  - [-1, 1, Conv, [256, 3, 2, 1, 4]] # 6-P3/8
  - [-1, 2, C3k2, [512, False, 0.25]]
  - [-1, 1, Conv, [512, 3, 2]] # 8-P4/16
  - [-1, 4, A2C2f, [512, True, 4]]
  - [-1, 1, Conv, [1024, 3, 2]] # 10-P5/32
  - [-1, 4, A2C2f, [1024, True, 1]] # 11

  - [2, 1, Conv, [64, 3, 2]] # 12-P1/2
  - [-1, 1, Conv, [128, 3, 2, 1, 2]] # 13-P2/4
  - [-1, 2, C3k2, [256, False, 0.25]]
  - [-1, 1, Conv, [256, 3, 2, 1, 4]] # 15-P3/8
  - [-1, 2, C3k2, [512, False, 0.25]]
  - [-1, 1, Conv, [512, 3, 2]] # 17-P4/16
  - [-1, 4, A2C2f, [512, True, 4]]
  - [-1, 1, Conv, [1024, 3, 2]] # 19-P5/32
  - [-1, 4, A2C2f, [1024, True, 1]] # 20

# YOLO Fuse head
head:
  - [[7, 16], 1, Concat, [1]] # cat backbone P3
  - [-1, 3, A2C2f, [256, False, -1]] # 22 (P3/8-small)

  - [[9, 18], 1, Concat, [1]] # cat head P4
  - [-1, 3, A2C2f, [512, False, -1]] # 24 (P4/16-medium)

  - [[11, 20], 1, Concat, [1]] # cat head P5
  - [-1, 3, A2C2f, [1024, False, -1]] # 26 (P5/32-large)

  - [[22, 24, 26], 1, Detect, [nc]] # Detect(P3, P4, P5)
